Study_programms/HW_num/model_weights.pth (torch, 361028 bytes, 6 tensors)

l1.weight f4 [100, 784]
-0.03226777 -0.028055869 0.0007207878 -0.032666754 0.020778265 -0.0048641395 -0.031901665 -0.007924156
-0.034147874 0.025534019 0.018485975 -0.0033046305 0.11190246 0.1763896 0.03287321 0.013892654
-0.007891916 -0.012982458 -0.03490271 0.024647772 0.017567538 0.012618944 0.003424365 -0.0048483945
-0.0044159405 -0.016991377 -0.0005832985 0.017597344 0.005643528 -0.026228275 -0.017203247 0.0084354915
-0.004348434 0.006500106 -0.049032077 -0.0067807054 -0.026668714 -0.01124367 0.056018226 0.041128386
0.19310059 0.323897 0.21287134 -0.19132186 -0.23028669 -0.086760215 0.0586205 0.0104097035
0.038624603 -0.0013643828 -0.0075389403 -0.07763108 0.026926171 0.034318652 0.03408427 -0.026281793
-0.017542869 0.016803242 -0.009907689 0.0036975467 0.035857767 0.04272495 0.0004105736 -0.119120784
0.19616087 -0.019395014 -0.30203095 -0.12230063 0.19679573 0.38591394 0.33823273 0.24035016
-0.2555535 0.2688658 0.4585548 0.13817208 -0.007787639 -0.080798 -0.038458765 0.039109282
-0.035943624 0.012926816 0.014951155 -0.008551955 0.01026332 -0.023692116 -0.00941304 -0.019526975
-0.012415024 -0.17997536 -0.31777403 -0.24041963 0.03439195 0.1645547 0.123018436 0.4552943
0.36613533 0.19782679 -0.0028088172 0.13735987 -0.2087271 -0.05624635 0.535894 0.3391758
0.13162169 0.5038077 0.19569282 -0.019891858 -0.39335266 -0.1346883 -0.16617431 0.023973517
-0.002227284 0.02362163 -0.05929134 -0.09625946 -0.30738038 -0.30850196 0.07539537 -0.07401179
-0.11722791 0.26805148 0.39519742 0.28303984 0.26789364 -0.114046246 0.024662716 -0.10009072
-0.32510132 -0.23165663 -0.3209503 -0.30251297 0.05774678 0.005230288 0.19163443 0.39406052
0.27923703 0.26857072 0.2344101 -0.07563169 0.00029068813 0.03054161 -0.038911954 -0.27120107
-0.43056706 -0.39478418 -0.3762029 -0.14956993 0.18501545 0.30622375 0.40142295 0.37680086
0.3307557 -0.11299129 -0.13456114 -0.500721 0.03649813 0.097987354 -0.39892793 -0.30590725
-0.06822871 -0.13294663 -0.05140809 -0.17644094 0.016359987 0.29055864 0.2207775 0.058857437
0.00759466 -0.12871234 -0.16904268 -0.6814483 -0.20696548 0.16360126 -0.15334289 0.020569757
0.35749087 0.48895463 0.23032795 0.15862063 -0.061858073 -0.3539402 -0.25869521 -0.20833212
-0.19664548 -0.1758653 -0.292668 -0.013214383 -0.19186975 -0.5431358 -0.031357273 0.27378517
0.12298379 0.24621765 0.3077905 0.0020004811 -0.001728486 -0.42277592 -0.28589687 -0.4964808
-0.2684191 0.22688846 -0.07092363 -0.24278773 0.115822926 0.27188256 0.3550033 -0.106392875
-0.3430684 -0.36618072 -0.24796854 -0.09251349 -0.33961767 -0.20181458 0.079245225 0.09777961
-0.20676093 -0.10328958 0.2613505 0.229922 0.14005554 -0.058142584 0.28978047 0.14598
0.0034208868 -0.4156451 0.0011209222 -0.038182892 0.0789138 0.252947 0.15355611 -0.031189913
0.021052979 0.20309775 0.023780476 -0.08450423 -0.51367146 -0.39734983 -0.046585523 0.043853115
-0.17958294 -0.074326985 -0.027748687 -0.3042656 -0.09555856 0.007510934 0.1417923 0.35789618
0.49680063 0.86365354 0.3815457 0.4952791 -0.06379441 -0.049119603 -0.10263562 0.11772728
00000000: 362b 04bd 6cd5 e5bc 40f3 3c3a 93cd 05bd
00000010: 2e37 aa3c 5c63 9fbb 52ab 02bd 52d4 01bc
00000020: a4de 0bbd b82c d13c e66f 973c 8092 58bb
00000030: 1e2d e53d 7a9f 343e 0fa6 063d 049e 633c
00000040: 184d 01bc 60b4 54bc 25f6 0ebd 20ea c93c
00000050: cce9 8f3c b0bf 4e3c 506b 603b 48df 9ebb
00000060: 98b3 90bb 8031 8bbc 80e8 18ba 4e28 903c
00000070: 58ed b83b aedc d6bc d3ed 8cbc 0435 0a3c
00000080: 4f7d 8ebb d7fe d43b dcd5 48bd ae30 debb
00000090: 5978 dabc 5f37 38bc 5e73 653d 3d76 283d
000000a0: 29bc 453e d4d5 a53e f2fa 593e e1e9 43be
000000b0: 46d0 6bbe 57af b1bd 0d1c 703d 768d 2a3c
000000c0: d534 1e3d 17d5 b2ba 3709 f7bb 0bfd 9ebd
000000d0: 4694 dc3c b791 0c3d f39b 0b3d ea4c d7bc
000000e0: 10b6 8fbc f4a6 893c dc53 22bc 8a52 723b
000000f0: 98df 123d 5b00 2f3d 4142 d739 99f5 f3bd
00000100: 65de 483e 4be2 9ebc cda3 9abe c178 fabd
00000110: d284 493e 8396 c53e d72c ad3e 5a1e 763e
00000120: e9d7 82be c7a8 893e b2c7 ea3e fb7c 0d3e
00000130: 732f ffbb 6c79 a5bd f086 1dbd 0e31 203d
00000140: 9f39 13bd ffca 533c b0f5 743c 801d 0cbc
00000150: 7c27 283c f815 c2bc 2739 1abc 09f7 9fbc
00000160: 6368 4bbc 764b 38be 47b3 a2be 9030 76be
00000170: 93de 0c3d 0781 283e 17f1 fb3d 561c e93e
00000180: 1776 bb3e 1b93 4a3e 2214 38bb 11a8 0c3e
00000190: 8fbc 55be 9362 66bd 5930 093f 73a8 ad3e
000001a0: d6c7 063e 8bf9 003f b363 483e 40f4 a2bc
000001b0: 8565 c9be bbeb 09be 9929 2abe 1c64 c43c
000001c0: a0f7 11bb 2682 c13c 7adb 72bd ae23 c5bd
000001d0: f660 9dbe f8f3 9dbe e368 9a3d 7e93 97bd
000001e0: 3015 f0bd 0b3e 893e 5157 ca3e 99ea 903e
000001f0: 5b29 893e 1491 e9bd 7709 ca3c 5dfc ccbd
00000200: ae73 a6be 6537 6dbe 9953 a4be fbe2 9abe
00000210: e387 6c3d d662 ab3b d13b 443e 4dc2 c93e
00000220: 28f8 8e3e 1a82 893e 3409 703e cae4 9abd
00000230: 8067 9839 6632 fa3c 2462 1fbd deda 8abe
00000240: 4973 dcbe 2721 cabe ab9d c0be dc28 19be
00000250: b174 3d3e 5cc9 9c3e 4f87 cd3e 0bec c03e
00000260: d058 a93e fa67 e7bd 65ca 09be 402f 00bf
00000270: 107f 153d 98ad c83d 4840 ccbe e09f 9cbe
00000280: 7ebb 8bbd 2923 08be 4a91 52bd efac 34be
00000290: 6105 863c 1ac4 943e 7f13 623e 7f14 713d
000002a0: a0dc f83b 2bcd 03be 8619 2dbe 6573 2ebf
000002b0: c2ee 53be 1787 273e eb05 1dbe e881 a83c
000002c0: 0b09 b73e 4358 fa3e 17db 6b3e 726d 223e
000002d0: e45e 7dbd a637 b5be b373 84be 0455 55be
000002e0: 6f5d 49be 0916 34be 95d8 95be 2481 58bc
000002f0: 8179 44be f30a 0bbf 7c70 00bd 922d 8c3e
00000300: edde fb3d 7b20 7c3e b796 9d3e 811a 033b
00000310: 5e8e e2ba 1676 d8be 1361 92be bb32 febe
00000320: 3a6e 89be 7355 683e 6840 91bd 599d 78be
00000330: 9234 ed3d 3134 8b3e fec2 b53e 82e4 d9bd
00000340: a9a6 afbe 0a7c bbbe 77eb 7dbe b677 bdbd
00000350: 5ee2 adbe 7ba8 4ebe 524b a23d ad40 c83d
00000360: 23b9 53be 7d89 d3bd bccf 853e ac70 6b3e
00000370: b86a 0f3e eb26 6ebd 1b5e 943e c87b 153e
00000380: f530 603b 6fcf d4be e8eb 923a aa65 1cbd
00000390: 8f9d a13d 4582 813e d03d 1d3e fd81 ffbc
000003a0: 4c77 ac3c dbf8 4f3e 46cf c23c 8e10 adbd
000003b0: f97f 03bf 7071 cbbe 76d0 3ebd 539f 333d
000003c0: 97e4 37be bf38 98bd 3751 e3bc b3c8 9bbe
000003d0: 35b4 c3bd 481e f63b 0032 113e 2b3e b73e
000003e0: a75c fe3e 6618 5d3f f559 c33e 3995 fd3e
000003f0: a5a6 82bd a331 49bd a032 d2bd 001b f13d

l1.bias f4 [100]
0.061668016 0.0714453 -0.04887204 0.249713 -0.28070405 -0.02585031 -0.094834164 0.060474798
0.06954444 -0.3276611 -0.22244859 -0.018438134 -0.0070517813 -0.12716083 -0.0028710274 0.11204685
-0.1729675 -0.121381566 -0.08938246 0.16701767 0.09889853 0.4455894 -0.05797893 -0.13297296
0.12762985 0.09317416 0.04931269 -0.44780105 0.03378482 -0.21281761 -0.19481017 -0.18837146
-0.0141734285 -0.11960335 0.075959995 0.06153479 -0.24462384 0.0021163465 -0.032173377 0.26612464
0.113569036 0.058129277 -0.41486633 0.12218748 0.070674926 -0.23382601 0.008001964 0.08081176
-0.061774842 -0.23390925 0.050865367 -0.00019482919 0.36150333 -0.23706748 0.0141253555 -0.043914467
-0.36700812 -0.079704344 0.40168136 -0.074172795 -0.31112853 0.023039805 0.014626413 -0.11255553
-0.03322219 -0.2004396 -0.03119791 0.29623124 0.02040284 0.36564574 -0.0104436865 -0.004831914
0.4077501 0.092805065 0.19895008 -0.19511113 0.094653204 0.23064575 -0.13561 0.361545
0.18906246 -0.10857756 -0.11487639 -0.15852846 0.049717624 -0.1287427 -0.33942163 -0.02235067
-0.23062456 -0.16766018 0.19713846 -0.15189938 0.22604132 0.24446188 0.03623215 -0.052644487
-0.17829277 0.057066247 -0.10791404 0.11805868
00000000: 9a97 7c3d ea51 923d 0c2e 48bd c4b4 7f3e
00000010: 71b8 8fbe 08c4 d3bc 6a38 c2bd 6cb4 773d
00000020: 516d 8e3d 32c3 a7be 90c9 63be 920b 97bc
00000030: a112 e7bb 7336 02be d927 3cbb d278 e53d
00000040: 641e 31be e696 f8bd 270e b7bd ae06 2b3e
00000050: 508b ca3d 4b24 e43e 517b 6dbd 102a 08be
00000060: 66b1 023e 18d2 be3d 1afc 493d 2e46 e5be
00000070: f461 0a3d dcec 59be 517c 47be 73e4 40be
00000080: ab37 68bc 9af2 f4bd ea90 9b3d e70b 7c3d
00000090: ac7e 7abe 67b2 0a3b 3bc8 03bd 7d41 883e
000000a0: e296 e83d f718 6e3d 5c69 d4be 6e3d fa3d
000000b0: 04be 903d 1670 6fbe ab1a 033c a380 a53d
000000c0: 9e07 7dbd e885 6fbe 3458 503d 104b 4cb9
000000d0: f716 b93e d1c1 72be 096e 673c a8df 33bd
000000e0: 7de8 bbbe 083c a3bd 2ea9 cd3e e8e7 97bd
000000f0: 3d4c 9fbe f9bd bc3c 9fa3 6f3c 8483 e6bd
00000100: fe13 08bd 0a40 4dbe c292 ffbc 9fab 973e
00000110: db23 a73c eb35 bb3e ff1b 2bbc 0855 9ebb
00000120: 9fc4 d03e 9510 be3d 92b9 4b3e 36cb 47be
00000130: 8ad9 c13d 662e 6c3e 59dd 0abe 6d1c b93e
00000140: 9799 413e e95d debd 5044 ebbd 4955 22be
00000150: b5a4 4b3d 20d5 03be acc8 adbe c118 b7bc
00000160: d828 6cbe 1caf 2bbe aade 493e 838b 1bbe
00000170: 6077 673e 3754 7a3e 2a68 143d bfa1 57bd
00000180: 6192 36be 4cbe 693d 0902 ddbd c0c8 f13d

l2.weight f4 [100, 100]
-0.37347347 -0.23242193 -0.30896935 0.073403284 -0.021584533 -0.08587644 -0.17701006 0.02017511
0.05703532 0.015540385 0.2142443 -0.09579143 -0.066076644 0.084739976 -0.06410066 -0.046793252
-0.007374153 -0.04652063 -0.22242007 0.120645605 0.13607968 -0.20528555 0.2048131 0.2906337
-0.13189703 0.4747683 -0.20179111 0.026185874 -0.055246167 0.064663745 0.20860802 -0.06649638
0.059084997 0.13865368 -0.14810583 -0.63447344 0.27896252 0.2823625 -0.083902895 -0.116390556
0.21414374 -0.15210076 0.06303953 -0.089614734 0.2857651 -0.353121 0.14192855 0.08096791
-0.09928145 -0.32405964 -0.20530461 0.09450666 -0.6882055 -0.3636471 0.3011173 0.48702535
0.15338764 -0.04321491 -0.3293674 0.15470451 -0.13909946 0.028269961 -0.1739847 0.10325152
-0.11479273 -0.29977193 0.27706566 0.29271144 0.22519709 -0.06994864 -0.008219867 -0.6536619
0.043891944 0.11353447 0.35149026 -0.18727756 0.18595037 -0.0017381818 -0.16097173 -0.055469505
0.19340573 0.38334584 0.05819929 -0.28964272 -0.28730902 0.19275641 -0.0027204074 -0.1431303
0.17870428 0.266025 -0.32051292 0.13093196 -0.26017693 -0.29388577 -0.14868757 0.14528371
0.0809804 -0.30747995 -0.012579867 0.10812207 0.3737927 -0.007087967 -0.24514616 0.005386828
-0.40869978 0.02590201 0.15256411 0.1928732 0.15687571 0.052650172 0.11468797 0.02418743
-0.046618752 -0.43136397 0.31312138 0.120713614 0.26362824 0.008196338 -0.27269763 0.021818003
0.4968213 0.29213864 0.11205596 -0.22288999 0.06605427 -0.16224505 -0.23823828 -0.11320075
-0.094711356 0.099839315 -0.12975524 -0.30594167 -0.016255895 -0.63671917 -0.5915016 -0.1962146
-0.3975128 -0.009055749 0.005166428 0.09021448 -0.012606806 0.4807661 -0.04529621 0.15197839
-0.029451557 0.023300095 -0.39049864 0.38763192 -0.24144886 -0.14921384 0.28342327 0.057845462
0.48701847 -0.009506592 0.05221688 -0.28138125 -0.7105277 0.04420106 0.20804697 -0.42820662
0.21734546 -0.078291796 0.043427274 -0.004700916 0.10842327 0.07092856 -0.21272278 -0.30595914
0.62065774 -0.13396977 -0.1699445 0.3450723 -0.3509917 -0.12797348 0.16279359 0.16089813
0.37577382 -0.09656482 0.060191892 0.07055159 -0.22407389 0.25759003 -0.43846127 0.11263594
0.4511108 0.13264883 0.07017394 0.14658764 -0.046954397 -0.44214097 0.39254802 0.067973785
0.07767985 0.22822106 0.044416975 -0.3443214 0.22626533 0.044202317 -0.024019847 -0.03096721
0.040240932 0.17080413 -0.3128253 -0.31461853 0.19830911 0.0150556825 -0.20045294 0.19972211
0.03251389 -0.010667723 0.17449647 0.0033247643 0.07851284 0.07689387 -0.22271031 0.1682536
0.07563048 0.015300651 0.079848155 0.20481597 0.18272285 -0.0068221893 0.37825912 0.20239185
-0.2735456 0.024995463 -0.19141352 -0.09292842 0.07176456 0.09855965 0.20071924 -0.043812923
0.027465696 0.18325852 0.043610744 -0.62415785 -0.09856801 -0.13646439 -0.064904556 -0.35649082
0.24598639 0.29200166 0.04551049 0.3411248 -0.022523245 -0.04610309 -0.29793277 -0.102239534
0.1601096 -0.106672086 -0.22464858 0.3332368 -0.34150156 -0.31251383 0.008462212 -0.48548874
00000000: ea37 bfbe 0400 6ebe 3b31 9ebe 7654 963d
00000010: 0cd2 b0bc fddf afbd 2042 35be 4646 a53c
00000020: de9d 693d 199d 7e3c dc62 5b3e 4c2e c4bd
00000030: 3153 87bd 278c ad3d 3547 83bd 48aa 3fbd
00000040: e1a2 f1bb 6b8c 3ebd 16c2 63be 0b15 f73d
00000050: 7958 0b3e 6036 52be 86ba 513e f1cd 943e
00000060: 0410 07be d514 f33e 54a2 4ebe c283 d63c
00000070: ce49 62bd 6d6e 843d 579d 553e 412f 88bd
00000080: 1c03 723d 3bfb 0d3e 0ea9 17be da6c 22bf
00000090: 2dd4 8e3e d191 903e 48d5 abbd 2c5e eebd
000000a0: 7f48 5b3e 4dc0 1bbe de1a 813d ee87 b7bd
000000b0: ce4f 923e 47cc b4be b855 113e 81d2 a53d
000000c0: 1354 cbbd 25eb a5be 5f3b 52be b58c c13d
000000d0: 3c2e 30bf f42f babe 0c2c 9a3e 635b f93e
000000e0: a611 1d3e 1e02 31bd d8a2 a8be dc6a 1e3e
000000f0: 1770 0ebe 6896 e73c 0c29 32be 8875 d33d
00000100: 7318 ebbd b57b 99be 8ddb 8d3e 46de 953e
00000110: 119a 663e 3c41 8fbd 9fac 06bc 6356 27bf
00000120: 0ac8 333d c384 e83d 88f6 b33e b0c5 3fbe
00000130: c669 3e3e b4d3 e3ba c6d5 24be fe33 63bd
00000140: 270c 463e e845 c43e 6162 6e3d 0d4c 94be
00000150: 2b1a 93be f061 453e dd48 32bb c090 12be
00000160: 41fe 363e 6e34 883e 451a a4be 0713 063e
00000170: e935 85be 3278 96be 8e41 18be 41c5 143e
00000180: 0dd9 a53d 036e 9dbe c91b 4ebc 1b6f dd3d
00000190: c261 bf3e 2d42 e8bb 9807 7bbe fd83 b03b
000001a0: 1941 d1be 7430 d43c c439 1c3e 8d80 453e
000001b0: 07a4 203e b5a7 573d 87e1 ea3d b824 c63c
000001c0: 4ef3 3ebd bddb dcbe 7251 a03e b338 f73d
000001d0: 48fa 863e ef49 063c 069f 8bbe abbb b23c
000001e0: 5d5f fe3e 3293 953e 987d e53d 463d 64be
000001f0: 7647 873d 9123 26be bcf4 73be cbd5 e7bd
00000200: 07f8 c1bd 8e78 cc3d 8fde 04be 63a4 9cbe
00000210: 152b 85bc 0700 23bf a66c 17bf 7bec 48be
00000220: cc86 cbbe 905e 14bc 244b a93b 5fc2 b83d
00000230: c78c 4ebc f926 f63e 8588 39bd 39a0 1b3e
00000240: 6444 f1bc d7df be3c 70ef c7be b177 c63e
00000250: 5f3e 77be 83cb 18be db1c 913e 5def 6c3d
00000260: 7c5a f93e 89c1 1bbc 5ee1 553d 3411 90be
00000270: 25e5 35bf 2c0c 353d 440a 553e e63d dbbe
00000280: cf8f 5e3e 7357 a0bd cce0 313d 240a 9abb
00000290: 050d de3d fe42 913d 00d4 59be ada6 9cbe
000002a0: 6de3 1e3f 5f2f 09be ee05 2ebe 51ad b03e
000002b0: 2fb5 b3be 7b0b 03be 5db3 263e 7bc2 243e
000002c0: 6d65 c03e c7c3 c5bd c68b 763d 5a7d 903d
000002d0: a073 65be d7e2 833e ff7d e0be acad e63d
000002e0: fff7 e63e 18d5 073e 5bb7 8f3d 121b 163e
000002f0: 4153 40bd 4d60 e2be 0efc c83e d735 8b3d
00000300: 9d16 9f3d c8b2 693e 93ee 353d e54a b0be
00000310: 19b2 673e 7d0d 353d 45c5 c4bc f2ae fdbc
00000320: add3 243d 47e7 2e3e a32a a0be ae15 a1be
00000330: 8b11 4b3e 1cac 763c 8943 4dbe f483 4c3e
00000340: 492d 053d acc7 2ebc 34af 323e 4ae4 593b
00000350: 57cb a03d 897a 9d3d 2c0e 64be ac4a 2c3e
00000360: 27e4 9a3d 95af 7a3c 6e87 a33d 47bb 513e
00000370: b31b 3b3e ac8c dfbb 2eab c13e cf3f 4f3e
00000380: 2b0e 8cbe 49c3 cc3c e801 44be 4151 bebd
00000390: 4cf9 923d a4d9 c93d 5889 4d3e 2e75 33bd
000003a0: bdff e03c 1fa8 3b3e 2ea1 323d cfc8 1fbf
000003b0: 06de c9bd 52bd 0bbe aeec 84bd f785 b6be
000003c0: dbe3 7b3e 3e81 953e 3569 3a3d e9a7 ae3e
000003d0: ab82 b8bc 98d6 3cbd a58a 98be f662 d1bd
000003e0: c5f3 233e e576 dabd 470a 66be 049e aa3e
000003f0: 4bd9 aebe d001 a0be 17a5 0a3c fb91 f8be

l2.bias f4 [100]
-0.2455722 0.0031606772 0.03244064 -0.15944761 0.2106804 0.01645464 0.46583447 -0.011272577
-0.23579782 0.01514812 -0.06550074 0.22231051 -0.0071741967 -0.281098 -0.08911142 -0.025431024
0.042979874 -0.20862828 -0.14271247 0.19284655 0.17138198 0.37150142 0.08151756 -0.21988603
0.25036326 0.26914412 0.25326172 0.013938345 -0.057619642 0.05270371 0.026113069 -0.1784336
0.14154176 -0.21433288 0.45216423 -0.09768718 -0.31503513 0.34888333 0.005508025 0.265472
0.062537834 -0.16064638 0.010895476 0.047440715 0.3083104 0.010430813 -0.03182117 -0.2877294
-0.32140365 0.20679675 -0.23880523 0.32543153 -0.12157055 -0.117001474 -0.017380197 -0.28744277
0.11999983 0.42040133 -0.033256415 0.010523546 -0.078541055 -0.012460933 0.051254366 -0.027307136
0.55078554 -0.12951723 -0.22943899 -0.13629821 0.18760619 0.056750372 0.17744382 -0.15863061
-0.027268168 -0.08499601 0.087977245 0.040045574 -0.20483012 0.2278232 -0.13816755 0.117659494
0.28729376 -0.026932446 -0.052253503 -0.05417798 0.009284287 0.42934868 0.0043992028 -0.14438505
0.07500931 -0.06055056 0.14850277 -0.06001676 -0.25915462 -0.068544954 0.30608752 0.15763983
0.012355582 0.115298726 0.067081615 0.22514488
00000000: 4777 7bbe 5d23 4f3b 7ae0 043d 3c46 23be
00000010: 9abc 573e e2cb 863c db81 ee3e 9db0 38bc
00000020: fc74 71be d22f 783c 4125 86bd 5ea5 633e
00000030: 8615 ebbb 14ec 8fbe 0c80 b6bd b954 d0bc
00000040: aa0b 303d a7a2 55be 3823 12be 9179 453e
00000050: c27e 2f3e 6f35 be3e aef2 a63d ce29 61be
00000060: 9d2f 803e 42cd 893e 85ab 813e a85d 643c
00000070: 9302 6cbd d8df 573d 13eb d53c 4cb7 36be
00000080: 53f0 103e 147a 5bbe 1282 e73e 3710 c8bd
00000090: 494c a1be d6a0 b23e aa7c b43b f2eb 873e
000000a0: d613 803d 7c80 24be f082 323c 3251 423d
000000b0: dcda 9d3e 00e6 2a3c ea56 02bd 4551 93be
000000c0: 058f a4be 87c2 533e 5c89 74be f69e a63e
000000d0: fbf9 f8bd 789e efbd ea60 8ebc b32b 93be
000000e0: 79c2 f53d d83e d73e e137 08bd f36a 2c3c
000000f0: 22da a0bd f128 4cbc 19f0 513d 37b3 dfbc
00000100: 4800 0d3f 2aa0 04be 0ef2 6abe c291 0bbe
00000110: d61b 403e 1473 683d d5b3 353e 1070 22be
00000120: 7e61 dfbc 6312 aebd 6a2d b43d d406 243d
00000130: fdbe 51be 7c4a 693e cb7b 0dbe 76f7 f03d
00000140: 2b18 933e 6fa1 dcbc c507 56bd bbe9 5dbd
00000150: 1f1d 183c 97d3 db3e 3027 903b add9 13be
00000160: 7b9e 993d dd03 78bd 1c11 183e 22d4 75bd
00000170: eaaf 84be 4c61 8cbd 81b7 9c3e 566c 213e
00000180: 116f 4a3c bd21 ec3d 1662 893d 618c 663e

l3.weight f4 [10, 100]
0.16754419 -0.34605485 -0.2699903 -0.46903893 0.16689643 -0.49507135 -0.2158406 0.15659072
-0.6305259 0.03737486 0.112560764 -0.70278424 0.1236734 -0.08802376 0.107288316 0.2762598
-0.10028743 0.23539244 0.095879935 0.1139675 -0.033704214 0.00061187777 -0.43678132 -0.43121094
-0.28073794 -0.24713396 0.23126496 -0.79133505 -0.02081902 -0.079938695 0.31087252 -0.66061574
-0.44851762 -0.047180906 -0.423948 -0.57284325 0.14335917 -0.31552532 -0.30743074 0.07313962
0.1729302 -0.482135 -0.029933318 -0.33219188 -0.22920986 -0.59631413 0.2603495 -0.42895597
0.06907222 -0.07268734 0.20337315 -0.37906864 -0.2996678 -0.59281784 0.18244328 0.1009234
-0.1986303 -0.4175286 -0.7461335 0.26851508 0.23937698 -0.1680958 0.281808 -0.64709985
-0.5389673 0.18927923 0.2572878 -0.090187185 -0.035260133 0.38334453 0.17037475 0.01599718
-0.5471771 -0.032472663 0.09275391 0.2099803 -0.5155685 -0.13521978 -0.1294562 -0.59668857
0.118424885 -0.09663398 0.104559906 -0.32848382 -0.52625066 -0.08704127 -0.29728448 0.37730354
-0.022913413 -0.2558573 0.13004513 -0.2065826 -0.034910824 -0.35912395 0.025732242 -0.6555143
-0.5048374 -0.08185019 0.12224612 -0.14228454 -0.48011097 -0.02075684 0.17495236 0.00096567266
0.009449934 0.026329132 0.082281135 -0.2175854 0.13105215 0.03151955 -0.33708474 -0.026187314
-0.10415156 0.06259329 0.15355231 -0.68347925 0.13348062 0.265427 -0.04216126 -0.50297135
-0.15039763 -0.5533847 -0.02959713 0.3112076 -0.54876477 -0.16686638 0.10008469 0.09095529
0.030938642 -0.19982404 -0.12680897 0.43489757 0.13582085 -0.987704 -0.6544153 -0.5681567
0.16928819 -0.010036425 -0.667906 -0.30477366 -0.59764296 0.19945249 0.30763778 -0.19017327
-0.0692155 0.012449937 -0.14159615 0.09342716 0.4086911 -0.5457766 0.20080338 -0.09809834
0.37979886 0.13110566 -0.0035480515 0.010084093 -0.03225069 -0.40786216 -0.07300701 -0.6317708
-0.07672215 -0.43753415 0.09877294 0.04475502 -0.05524676 -0.2251315 -0.23192789 -0.2547491
0.09220366 -0.7732 0.19379939 0.17808376 0.13542502 0.15314321 -0.5589906 -0.7973633
-0.786158 -0.61044025 0.110495314 0.20370026 -0.5737587 -0.5897624 -0.83139646 -0.3531718
0.23277462 0.28287494 -0.08534872 0.18479224 -0.19143775 -0.66980404 -0.34051418 -0.76235104
-0.16870268 0.05580753 0.17756215 -0.4159323 0.016269958 -0.5868081 0.019035477 -0.22808468
-0.15374489 -0.7738415 -0.19211143 -0.03492144 -0.035834312 -0.16727194 0.05960799 -0.14655223
0.1948092 0.010899928 -0.55891514 -0.018692633 -0.47122067 -0.14921618 0.114655286 -0.047292635
0.018158255 -0.26384565 0.004027623 -0.016693164 0.31569576 0.11613658 0.044280853 0.09931078
-0.39472058 0.16811834 -0.3997869 -0.15346886 0.075251505 0.30367714 0.020865994 -0.43093985
0.09013013 -0.17640138 -0.14028893 -0.14923629 0.17234161 -0.52086985 0.19829854 -0.5042964
-0.2876227 0.13505852 0.042804085 0.13131231 0.24377963 -0.011355089 -0.01823778 -0.22716054
-0.30868408 0.26570672 0.12992483 -0.68932074 0.061492562 0.48692596 -0.42234266 -0.06214002
00000000: b490 2b3e 1a2e b1be 2b3c 8abe df25 f0be
00000010: e6e6 2a3e fe79 fdbe 5105 5dbe 5159 203e
00000020: 256a 21bf 6216 193d 4286 e63d abe9 33bf
00000030: 7b48 fd3d cd45 b4bd fab9 db3d ed71 8d3e
00000040: 7f63 cdbd b70a 713e b35c c43d cb67 e93d
00000050: 6e0d 0abd 6c66 203a cda1 dfbe aec7 dcbe
00000060: e2bc 8fbe af10 7dbe b9d0 6c3e ef94 4abf
00000070: a68c aabc e6b6 a3bd af2a 9f3e 1d1e 29bf
00000080: 1aa4 e5be c440 41bd b60f d9be dba5 12bf
00000090: bfcc 123e 898c a1be 9067 9dbe 3aca 953d
000000a0: 9d14 313e 66da f6be b836 f5bc 0e15 aabe
000000b0: fdb5 6abe 0ba8 18bf 884c 853e 1ea0 dbbe
000000c0: bc75 8d3d 1add 94bd 0d41 503e 4915 c2be
000000d0: 0f6e 99be e9c2 17bf 69d2 3a3e edb0 ce3d
000000e0: be65 4bbe 4fc6 d5be 9b02 3fbf cf7a 893e
000000f0: 3d1f 753e 4e21 2cbe 2349 903e 56a8 25bf
00000100: c3f9 09bf 6ad2 413e 3abb 833e 0fb4 b8bd
00000110: ee6c 10bd bc45 c43e b876 2e3e 850c 833c
00000120: cc13 0cbf 0e02 05bd c3f5 bd3d 1305 573e
00000130: 4cfc 03bf 0e77 0abe 2b90 04be 95c0 18bf
00000140: bf88 f23d 09e8 c5bd 8123 d63d 082f a8be
00000150: 5db8 06bf b242 b2bd ac35 98be ee2d c13e
00000160: e9b4 bbbc baff 82be 8d2a 053e 648a 53be
00000170: a7fe 0ebd 18df b7be 6ccc d23c c9cf 27bf
00000180: 063d 01bf 13a1 a7bd 2c5c fa3d 0ab3 11be
00000190: 1bd1 f5be 400a aabc b626 333e 3225 7d3a
000001a0: e5d3 1a3c 31b0 d73c 0383 a83d b5ce 5ebe
000001b0: 8932 063e a51a 013d 5f96 acbe c786 d6bc
000001c0: 6a4d d5bd e930 803d d13c 1d3e 7ff8 2ebf
000001d0: 25af 083e 0ce6 873e 49b1 2cbd bbc2 00bf
000001e0: d601 1abe 9faa 0dbf ae75 f2bc 9a56 9f3e
000001f0: d97b 0cbf 05df 2abe 34f9 cc3d c446 ba3d
00000200: 0973 fd3c ac9e 4cbe 36da 01be e5aa de3e
00000210: 9f14 0b3e 2bda 7cbf c387 27bf b872 11bf
00000220: e259 2d3e d16f 24bc e3fb 2abf 4b0b 9cbe
00000230: 21ff 18bf 463d 4c3e b382 9d3e c8bc 42be
00000240: dbc0 8dbd d2fa 4b3c 95fe 10be bd56 bf3d
00000250: f63f d13e 04b8 0bbf 679f 4d3e c8e7 c8bd
00000260: ff74 c23e 9040 063e 6d86 68bb c037 253c
00000270: 4d19 04bd 4fd3 d0be b384 95bd bbbb 21bf
00000280: 8120 9dbd 7a04 e0be 7849 ca3d 0a51 373d
00000290: 6d4a 62bd df88 66be 817e 6dbe 796e 82be
000002a0: 46d5 bc3d 6ff0 45bf 5973 463e 975b 363e
000002b0: dbac 0a3e 93d1 1c3e 021a 0fbf 0020 4cbf
000002c0: a741 49bf d045 1cbf 5e4b e23d cd96 503e
000002d0: dae1 12bf abfa 16bf 66d6 54bf efd2 b4be
000002e0: 785c 6e3e fcd4 903e 4fcb aebd 2d3a 3d3e
000002f0: 4208 44be 4778 2bbf e057 aebe 7029 43bf
00000300: 65c0 2cbe 7096 643d dad2 353e 14f5 d4be
00000310: 9348 853c 0e39 16bf 4af0 9b3c 088f 69be
00000320: 4d6f 1dbe 7a1a 46bf dcb8 44be c909 0fbd
00000330: 00c7 12bd 5649 2bbe 8227 743d ca11 16be
00000340: 107c 473e 9d95 323c 1015 0fbf 4b21 99bc
00000350: d643 f1be 20cc 18be 64d0 ea3d ecb5 41bd
00000360: 9fc0 943c c716 87be 27fa 833b 1ac0 88bc
00000370: e0a2 a13e 04d9 ed3d d75f 353d 7363 cb3d
00000380: d118 cabe 3727 2c3e deb0 ccbe f126 1dbe
00000390: 761d 9a3d 927b 9b3e 29ef aa3c 26a4 dcbe
000003a0: 2596 b83d 90a2 34be e7a7 0fbe 66d1 18be
000003b0: 527a 303e ba57 05bf c60e 4b3e 9219 01bf
000003c0: 4843 93be c84c 0a3e 5653 2f3d bc76 063e
000003d0: 5ea1 793e b20a 3abc 6667 95bc c69c 68be
000003e0: d70b 9ebe b60a 883e 040b 053e 5377 30bf
000003f0: a0df 7b3d 5c4e f93e 4c3d d8be 8986 7ebd

l3.bias f4 [10]
-0.15757655 -0.14896926 -0.13469175 -0.012830046 0.16218215 0.12015652 -0.26676714 -0.3234932
0.44351786 0.049341835
00000000: bf5b 21be 668b 18be a2ec 09be 1d35 52bc
00000010: 1413 263e 9f14 f63d b495 88be e7a0 a5be
00000020: c614 e33e aa1a 4a3d
