Study_programms/HW_num/model_weights.pth (torch, 361028 bytes, 6 tensors)

l1.weight f4 [100, 784]
000000 78 5d 1e bc fe f7 a0 3c bc 8b c3 bc 22 67 f3 3c
       -0.009665839 0.019649502 -0.023870341 0.029712263
000010 3c f2 34 3c 86 78 12 bc ea 6f 18 bc f0 68 36 bb
       0.011044081 -0.008939868 -0.009304026 -0.0027833544
000020 54 71 06 bd b8 0c 30 3c fa 47 8f bc 6e 67 f5 3c
       -0.032822922 0.01074522 -0.017490376 0.029956546
000030 50 65 19 3d 27 8a ce 3c ba a7 af 3c a2 a1 ae 3c
       0.037450135 0.02521236 0.021442283 0.021317307
000040 35 dc 09 bd e6 1d 32 bc a6 c6 fa 3c a1 68 04 3d
       -0.03365727 -0.010871386 0.030612301 0.032326344
000050 6a 50 3e bc e8 ab 81 3c a3 03 00 3d 78 d8 6a bc
       -0.011615852 0.015829042 0.03125347 -0.014333837
000060 0c 89 a8 bc b8 1d f6 3b 62 ec 9b 3c 6a db 00 bd
       -0.020573162 0.007510867 0.019033615 -0.03145925
000070 bc 30 a5 bc 74 5c 29 3c 9c 4f 95 3c b1 8c f4 bc
       -0.02016484 0.010336984 0.018226437 -0.029852243
000080 28 94 27 bc ba c5 f4 3c e6 66 b9 3b 95 62 e3 3b
       -0.010228194 0.02987944 0.0056580184 0.006939242
000090 f5 84 22 bd 93 8c 82 bd 66 73 02 be 99 03 c5 bd
       -0.03967758 -0.06374469 -0.12739334 -0.09619827
0000a0 f1 35 11 3e b4 93 da 3c c8 7e 28 3d 0d 51 7f 3d
       0.14180733 0.026681758 0.041136533 0.062333155
0000b0 b0 66 eb bd e7 e9 94 bd eb e3 98 bd 54 8f 0c be
       -0.114941955 -0.07271176 -0.07465347 -0.1372655
0000c0 dd c5 25 be 86 42 2a bd 02 2a ae 3a 1e 4d bd bc
       -0.1618876 -0.041567348 0.0013287666 -0.023108061
0000d0 a4 7e e3 bb c6 f0 a1 3c b0 3b d6 3c 72 11 0f bd
       -0.006942587 0.01976813 0.026151508 -0.034928747
0000e0 8e 0e 78 bc 32 e3 08 bd cf c7 23 bd 1b 3f aa 3c
       -0.015140189 -0.033419795 -0.039985474 0.020782044
0000f0 1d 86 8d 3c a7 2b 40 bd 33 d0 8f bd c5 90 1e be
       0.017275864 -0.04691663 -0.07022133 -0.15484913
000100 8e 90 a3 be 37 65 bf be ce 7d 89 be 82 27 89 3d
       -0.31946224 -0.37381908 -0.26853794 0.06696989
000110 96 60 0f 3d d7 9a ff bd c4 f8 00 be a7 0b f3 bc
       0.03500422 -0.12480705 -0.12594897 -0.029668642
000120 2b 50 82 3d 61 c1 96 3d 60 8d a7 3d 06 2f 24 3e
       0.06362947 0.07361103 0.08181262 0.16033563
000130 0b dd 39 3e 59 c6 b9 3d 3b 4d 27 3d 97 81 dc 3c
       0.18150727 0.09071035 0.040845137 0.026917262
000140 07 b1 d1 bd a9 cf 4a bd e8 74 dc bc 12 8d 1d bc
       -0.102388434 -0.049514446 -0.026911214 -0.009616153
000150 be 69 db 3c 60 46 81 3c 36 e1 21 3e 3c 6b 98 3e
       0.02678382 0.015780628 0.15808567 0.29769313
000160 4e d8 28 3e 2c 15 12 bd c7 34 85 bd 0b 39 3a 3e
       0.16488764 -0.035664722 -0.06504207 0.18185823
000170 e4 fc b4 3e f3 21 04 3e 25 0c e1 3d 04 60 ae 3d
       0.3534919 0.12903576 0.109886445 0.08514407
000180 fd 0b 00 3e eb 4e e5 3b b8 48 b6 bd d6 60 04 3e
       0.12504573 0.006997933 -0.08900589 0.12927565
000190 10 ef 70 3d 28 3e 0e 3e 10 1a ac 3e 0a bc 3b 3e
       0.058821738 0.13890898 0.33613634 0.1833345
0001a0 09 74 d5 3d d1 f1 83 3d 38 39 ed 3b 4e 44 35 3e
       0.104225226 0.06442607 0.007239487 0.17701837
0001b0 41 49 8f 3d 2c 98 f3 3d a4 52 39 3e 2e 0e 7f bc
       0.06996394 0.11894259 0.18097931 -0.015567346
0001c0 50 09 37 3c 22 52 1f 3d 0b 0c 2c 3e e1 4e 80 3e
       0.011171654 0.038896687 0.16801469 0.2506018
0001d0 9a 82 ae bd 7a 4e 99 be d4 eb ae be c8 f7 1c 3e
       -0.08521004 -0.29942685 -0.34164298 0.15328896
0001e0 e7 a9 89 3e 65 64 9e 3e 06 45 a4 3e 95 26 08 3e
       0.26887438 0.3093597 0.3208391 0.13295968
0001f0 a2 74 ab 3b db d0 21 bd 78 d2 c1 bc 88 7b ae 3d
       0.0052324096 -0.03950582 -0.02365993 0.085196555
000200 6f 1d 28 3e 8b b3 cc 3d 56 7f c2 3d ec 8a ac 3d
       0.16417478 0.099951826 0.09496944 0.08424935
000210 7a 5c a1 bc cc 85 c1 3d 1a 4a 55 3c 71 00 c1 3d
       -0.019697417 0.09449348 0.0130181555 0.09423912
000220 39 93 86 3e 9a 0f a0 3e 60 97 7c 3d 74 6b f7 bd
       0.26284197 0.31261903 0.0616678 -0.12081042
000230 2a e3 63 bc 59 d3 07 3d 0e 0b 13 3e 79 e5 4f 3e
       -0.013909141 0.03316054 0.14359686 0.2030238
000240 ca 92 9b be ea 11 bb be a0 9c 1e be e9 45 f1 3d
       -0.3038543 -0.36537105 -0.15489435 0.117809124
000250 0e 74 45 bd 17 2a ee 3d 05 29 71 3d d7 6b 25 be
       -0.04820638 0.11629122 0.05887701 -0.16154419
000260 75 0f c9 bd 1d 0e c6 bd 88 ec e4 bd f3 38 ab bd
       -0.09817401 -0.09670661 -0.11177927 -0.083604716
000270 13 b1 ab bb 82 54 91 bc 7d 88 41 bd 51 1b c2 3d
       -0.0052396148 -0.017740492 -0.047249306 0.094778664
000280 55 c4 75 3e 4f 51 8d 3d 5c 5a 46 3c 77 8a 8e bd
       0.24000676 0.06900274 0.012106504 -0.06960004
000290 0d d9 c3 bd 84 50 29 3d 06 20 a3 3d b0 27 ab bd
       -0.095628835 0.04133655 0.07965092 -0.08357179
0002a0 7e 73 de 3c bb f5 f3 3d 85 1a 1b be d3 8a 3d be
       0.02715468 0.11912104 -0.15146835 -0.18509988
0002b0 26 be 82 be 9c 0c c6 be 2d 0e 92 be 89 ce 09 be
       -0.25535697 -0.38681495 -0.2852644 -0.13457693
0002c0 d0 c9 29 bc 48 f5 3a bc ac cf 47 bc a6 ba 46 be
       -0.010363057 -0.011411019 -0.012195509 -0.19407138
0002d0 c9 91 1d be a6 ea 3d be 00 4d db bd e7 59 ea bd
       -0.15387644 -0.18546543 -0.10708046 -0.11442929
0002e0 94 2c 41 be 8e 90 46 be 5b 60 68 bd 46 df 7e 3d
       -0.18864661 -0.1939108 -0.056732517 0.06222465
0002f0 bd d1 43 3e 23 c4 26 be e3 3f 2a be 36 db 16 3e
       0.19122978 -0.16285758 -0.16625933 0.1473206
000300 45 c6 ce 3d ec d0 02 3e 7b d2 7b 3e b6 82 fd bd
       0.10096411 0.1277501 0.2459201 -0.12378447
000310 93 8c 9b 3c cf 94 d4 3c 16 d6 73 be af b7 7b be
       0.01898793 0.025949864 -0.23812136 -0.24581788
000320 70 ed 80 be 1b 69 89 be 7b 99 e3 be 5b 1f 9e be
       -0.2518115 -0.26838002 -0.44453034 -0.30883297
000330 b0 6d 65 be 55 ae ae bd ca e7 47 3d 60 2d bc bd
       -0.22405124 -0.08529345 0.048805036 -0.09188342
000340 23 b9 f9 bd 8b f3 80 be 0f 3e 14 be b9 66 e5 bd
       -0.12193515 -0.2518581 -0.14476798 -0.112012334
000350 7a 6c 34 be bf 55 25 be 56 e9 db 3c cf a8 01 3e
       -0.17619506 -0.16145991 0.026844662 0.12662052
000360 3a 59 f0 3d 32 08 66 bd 8d ce 71 3d ef ce 6f 3e
       0.117357686 -0.05616016 0.059034873 0.23418783
000370 57 bf 37 3e ce f1 17 3e 00 31 c1 3e 3b 8a ce bd
       0.17944084 0.14838335 0.37732697 -0.10084959
000380 76 6e 9d 3c 7d 30 28 bd 52 77 2b be 4a e9 70 be
       0.019217711 -0.041061867 -0.16744736 -0.23526493
000390 f8 a0 35 be 56 c6 34 be 30 74 73 be 91 b7 8c bd
       -0.17737186 -0.17653784 -0.23774791 -0.0687095
0003a0 26 db a3 bd f0 be 7b ba 8e 03 65 3d 6e 6b 75 3d
       -0.080007836 -0.0009603342 0.055911593 0.059916906
0003b0 c3 75 3a bc 92 a8 d0 bd 38 6a 29 be 76 67 83 bd
       -0.011380616 -0.10188402 -0.16544425 -0.06416218
0003c0 df cb 36 be b5 13 00 be 6f 67 d4 3c e1 d1 5d 3e
       -0.17851208 -0.12507518 0.025928227 0.21662094
0003d0 d9 32 51 3e 39 7c c8 3c 64 26 22 3e 86 f8 aa 3e
       0.20429553 0.024473296 0.15834957 0.33392733
0003e0 69 e0 8b 3e 4e 7f ab 3e f8 98 e7 3e 25 a9 2f 3e
       0.2731965 0.33495563 0.45233893 0.17154367
0003f0 34 90 ea bb 45 ee 64 bd 32 5b 39 be 38 5f 53 be
       -0.0071583036 -0.055891294 -0.18101195 -0.20641792

l1.bias f4 [100]
000000 20 08 9b 3c 61 e8 00 3e 6f 5f 6e 3e a1 5c 6c bd
       0.018924773 0.12588646 0.23278593 -0.057705525
000010 fe b8 3f bc 86 fa 7a bd 93 b5 ef 3d 52 34 41 3e
       -0.01170182 -0.061274074 0.117045544 0.18867615
000020 1d 12 48 be 2a 6e 0a 3e cd f7 88 3e 7a f1 8a bd
       -0.1953816 0.13518587 0.26751557 -0.06784339
000030 a6 e5 9b 3d af d8 b7 3d b8 8d 5b 3e 0e b1 b4 3d
       0.07612161 0.08976876 0.2144078 0.08822833
000040 f9 3c 2a bd 37 b9 90 3d 45 7f 6f 3e aa 6a 09 3e
       -0.041562054 0.07066577 0.23388393 0.13419595
000050 3c 0e ab bc af 41 ae 3e b8 f2 21 be 09 94 60 3e
       -0.02088081 0.34034488 -0.15815246 0.21931471
000060 ab e3 9e 3d 85 6d 6a bc 55 64 0e bd 18 7a 00 be
       0.07758268 -0.014308338 -0.034763653 -0.12546575
000070 53 80 23 3e dc c0 06 bc 4e 13 6d 3e 34 46 21 bd
       0.1596692 -0.008224692 0.23151895 -0.03937359
000080 9a 95 01 be f6 f6 b6 3d 13 5e d9 3c 9b e9 5a 3d
       -0.12654725 0.08933823 0.026534116 0.05344544
000090 36 37 87 bc 5f 53 95 bb 7e 4b cf bc 29 ea 74 3d
       -0.016505819 -0.0045570577 -0.025304552 0.059793625
0000a0 72 cd 34 bc 43 a5 17 3e 3e cd ee 3b b3 9c 8c bd
       -0.01103531 0.14809136 0.0072876504 -0.068658255
0000b0 5b 9f 46 3d 2b cf 99 bd 97 f9 a0 3d 9a ba 06 3d
       0.048491817 -0.07510217 0.078601055 0.0328928
0000c0 fd 36 20 3e 1b c6 ff bd bc 2c 01 bd 37 af 8b bb
       0.15645976 -0.124889575 -0.031536803 -0.0042628306
0000d0 11 29 90 3d f3 49 8a 3d 9b 39 8e bd ef 7e 2e be
       0.07039083 0.06752386 -0.06944581 -0.17040609
0000e0 53 9c 4b 3d 10 17 db 3b f7 a5 03 3e b3 90 13 bd
       0.04970963 0.006686099 0.1285628 -0.036026668
0000f0 f0 fb 56 bc 5d 2b c8 bc b8 3e 12 3e f4 5c 11 be
       -0.01312159 -0.02443474 0.14281738 -0.14195615
000100 0b 60 0d bd a3 be b2 3c cc 3e e3 3d f4 7a 85 bc
       -0.03451542 0.021819418 0.11095962 -0.01629398
000110 0c 58 21 be 66 3f 4e 3e 9c 99 6e bc 5b fc 33 3e
       -0.15756243 0.20141372 -0.0145629905 0.17576735
000120 61 62 12 3e b0 1b d4 ba 46 8d 4b 3d 4c 00 11 3e
       0.14295341 -0.0016182568 0.049695276 0.1416027
000130 d7 21 37 3d c5 1f c1 bd fb 1c c7 3d 64 ca b6 bd
       0.044710007 -0.09429888 0.097223245 -0.08925322
000140 8c ef 4b 3d 02 d9 39 be 87 62 1d be 63 53 21 bd
       0.049788997 -0.18149188 -0.15369616 -0.039386164
000150 23 18 2d 3e 39 55 1c 3c d1 76 a4 bc e1 f8 15 3e
       0.16903739 0.009541803 -0.020076187 0.14645721
000160 3f 17 94 3c 05 a6 0c ba d7 c8 29 3d 70 99 2a bd
       0.01807749 -0.0005365315 0.0414513 -0.041650236
000170 e5 c9 46 bb 84 59 4f 3e 79 64 30 3d 62 5a 02 be
       -0.003033274 0.20248991 0.04306457 -0.12729791
000180 bd 95 b5 3d b4 b0 ef bd cc 4f 2f bd 13 2b 75 be
       0.08866451 -0.11703625 -0.04280071 -0.23942213

l2.weight f4 [100, 100]
000000 fa 9d c9 be e2 9e 91 3d 9a 93 13 bc 9b d4 97 3a
       -0.3937834 0.071103826 -0.009007359 0.0011583747
000010 9f 77 11 3e a8 06 aa bb 3d 8d 82 be 88 99 56 3d
       0.14205788 -0.005188782 -0.2549838 0.052392513
000020 e9 6d d6 3d fa 09 1b 3f eb 41 93 be 63 d6 0a 3d
       0.104701824 0.605621 -0.2876123 0.03389586
000030 4f 3a 0e be b3 9a c2 bd 2d e3 cc bc b3 44 33 3e
       -0.1388943 -0.09502163 -0.02501067 0.17506675
000040 c1 ed 0b 3e ee 2e c7 3e 30 10 bc 3d b2 62 83 be
       0.13664915 0.38902992 0.09182775 -0.25661236
000050 03 50 ba 3e e0 e2 15 3e 32 db 0e be 9b 78 03 bf
       0.3638917 0.14637327 -0.13950804 -0.51355904
000060 d7 a4 35 3e 7e 9a 8a 3d 17 65 63 be 14 c4 d8 bd
       0.17738663 0.06767748 -0.22206531 -0.10584274
000070 ea 1e 33 be f0 6c 36 3d c8 f3 dc 3d 03 f7 c2 3d
       -0.17492262 0.044537485 0.10788685 0.0951977
000080 d1 b6 4f bc 7b a7 b8 bd dc a8 04 3e e4 61 e3 bd
       -0.012677864 -0.09016319 0.1295504 -0.111026555
000090 b3 99 55 be ee d6 6b 3d d0 f3 11 3c e7 20 e6 3b
       -0.20859413 0.05757802 0.008908227 0.0070229652
0000a0 b0 35 cc 3d 3b 3b 04 be 69 c6 1b 3e f2 30 1f 3e
       0.099711776 -0.1291322 0.15212406 0.15546015
0000b0 22 87 1e 3e 8f c0 16 be 12 61 89 3e 1d 3b 17 3d
       0.15481237 -0.14721893 0.2683187 0.03692161
0000c0 b7 49 b8 3d ad 95 87 3d 10 bc a4 be 51 1b 59 3e
       0.08998435 0.06620345 -0.3217473 0.21201827
0000d0 91 ae f4 3d 07 a7 8b bd 55 01 21 be f7 39 dc 3d
       0.119473584 -0.06818967 -0.15723164 0.107532434
0000e0 06 27 fd 3d a0 26 96 3c 31 34 ca 3d bc e9 8a bd
       0.12360959 0.018328965 0.09873236 -0.067828625
0000f0 bd bb 38 3e 6a ba 30 3d dc 1e 6e 3e dd 6e 48 be
       0.18040366 0.04314653 0.2325396 -0.19573541
000100 e6 c7 17 3d 93 47 fc 3d a7 f3 13 bd 37 18 15 3e
       0.037055872 0.12318339 -0.036121037 0.14560018
000110 f8 c3 02 bd eb 43 0a be 45 b0 b0 bd 42 5f 84 3e
       -0.03192517 -0.13502471 -0.08627371 0.25853926
000120 a1 92 82 be 6e 81 64 be 63 27 d1 3d d9 a9 bb 3c
       -0.25502494 -0.22314999 0.102125905 0.022908138
000130 67 41 c2 3e 69 71 cd bd f4 71 8b 3e 77 73 20 3e
       0.37940523 -0.10031397 0.27235377 0.15669046
000140 46 c4 74 3e 53 ba 10 be 3f 30 0a be 4b 4d 16 3d
       0.23902997 -0.14133577 -0.13494967 0.036694806
000150 6c 9b 02 bd e1 c4 2a be 53 f0 8b bd 7c 68 e3 3d
       -0.031886503 -0.16676666 -0.068329476 0.11103913
000160 8f 1c 53 bc 50 cb 2b 3e a5 56 c9 3c ce d7 78 3d
       -0.012885227 0.16776776 0.024577448 0.060752682
000170 38 f8 5e be 16 0c ce 3d 42 36 f5 3d bc fd b8 3c
       -0.21774375 0.10060899 0.119732395 0.022581927
000180 bc 3c 03 3e f7 9e aa bd 0e 2f 70 be 57 7a a9 bd
       0.12816137 -0.083311014 -0.2345545 -0.082752876
000190 1a e1 6d 3d 75 76 19 3e 00 43 83 3e 5e 15 cb bd
       0.058076 0.14986594 0.25637054 -0.09916185
0001a0 49 1b 01 be b1 b6 ae be 92 f1 09 3e 65 4c 87 bd
       -0.12608065 -0.34123757 0.13471058 -0.06606368
0001b0 8a 09 90 3d ef 7b 6a 3d e1 7e 22 bd e2 ec 8a be
       0.070330694 0.0572471 -0.039671782 -0.27133852
0001c0 ca c7 0c be 8f fe 0d be 94 4d 84 3e 52 1c 62 3e
       -0.13748088 -0.13866638 0.25840437 0.22081116
0001d0 ab fd 2b 3c 03 3a aa 3e c3 98 70 3e 14 cc 4b 3e
       0.010497491 0.33247384 0.23495774 0.19902068
0001e0 da 7a b8 3e 72 ee c7 3a af 71 f5 bd d8 8d 40 bd
       0.36031228 0.0015253557 -0.11984574 -0.047010273
0001f0 61 bd 47 3e ac 9a 90 3e 77 3d fa 3d 10 5f d4 3d
       0.19505836 0.28243005 0.12218755 0.10369694
000200 4f 1e 87 3d b0 ce 98 bd 40 98 88 be 5c 52 85 3e
       0.06597578 -0.074612975 -0.26678658 0.26039398
000210 bc fc 81 bc 59 b1 80 3e e3 0f f9 bc d1 33 34 bc
       -0.015867583 0.25135306 -0.030403083 -0.010998682
000220 30 3a 42 3e 5c 02 01 bd 1e 27 2c be a7 f3 5b 3d
       0.1896751 -0.03149639 -0.16811797 0.05369916
000230 bd 8f 85 3e c9 45 99 bd 00 98 74 3e 7d 14 8a 3e
       0.26086226 -0.074840136 0.23886108 0.26968756
000240 83 47 27 3e 8a 6f 0c 3e 3a c8 d4 3e 84 43 fa bd
       0.16335873 0.13714424 0.4155901 -0.12219909
000250 5b 39 b8 be 6e 34 32 be 13 df 4d be fd 80 b8 3d
       -0.3598126 -0.17402813 -0.20104627 0.090089776
000260 03 74 b6 3e aa 5f bd 3e 0d d3 ad 3a 29 fe a9 be
       0.35635385 0.36987048 0.001326175 -0.3320172
000270 a2 0f 48 3e da 69 c2 bc 25 2a 86 be a2 c6 d5 bb
       0.19537213 -0.023732115 -0.2620403 -0.006523923
000280 23 d5 3f 3e c7 b1 44 be 31 04 a9 3e e9 65 93 bd
       0.18733649 -0.19208442 0.3301101 -0.07197172
000290 9a 94 b5 bc 16 a8 9c be 33 25 81 be 9f 1f e3 3d
       -0.022165585 -0.3059699 -0.25223693 0.110900156
0002a0 44 99 fd bd 0c eb 32 3e c4 63 cd 3c a4 61 03 3e
       -0.12382749 0.17472476 0.025071986 0.12830216
0002b0 83 94 e8 3b bb e3 17 be 1a 2d e3 bd 88 b0 15 3e
       0.007097782 -0.14832966 -0.11092587 0.14618123
0002c0 4c d7 b2 3e 4f 7e 35 bf 18 d7 81 3e a6 ae 85 3d
       0.34929883 -0.70895857 0.25359416 0.06527452
0002d0 55 98 39 bd c8 11 ab be df 1f a4 be d5 ce 81 3d
       -0.04531129 -0.33412004 -0.32055566 0.06338278
0002e0 25 05 c5 3d ba d3 5c 3e 84 7c b4 3d 8c 6e 07 be
       0.09620122 0.21565142 0.08812812 -0.13225764
0002f0 21 3a fe 3c 53 1a 4c 3e 53 3b a3 bd c9 00 9f bd
       0.031033577 0.19931917 -0.079702996 -0.07763822
000300 00 ec 23 3e f6 18 65 be 35 02 04 3e ea 2c 0f 3e
       0.16007996 -0.22372803 0.12891467 0.13981977
000310 11 ec d7 3e c3 34 ef be 71 47 86 be fc 11 6e bd
       0.42172292 -0.46719941 -0.2622638 -0.05812262
000320 26 c9 a7 3c a5 4e b1 3c 33 c6 15 be 18 1d 53 3e
       0.020481657 0.021643946 -0.14626388 0.20616567
000330 0c 0a a1 bd ee 83 0b 3e 44 2e bc 3d 1b a2 7b 3e
       -0.078632444 0.13624546 0.09188512 0.24573557
000340 e5 bc 2c 3e a4 b1 56 3e 0d 8a d1 3b a3 86 14 3e
       0.16868933 0.20966202 0.0063946308 0.14504485
000350 e0 ed 62 bd 73 30 06 be 84 27 a3 3c 50 fa 92 be
       -0.055402637 -0.1310442 0.019916303 -0.28706598
000360 a6 6f 3e bd fd 0b 2c bd bb 89 92 bd 91 26 c7 be
       -0.046493195 -0.04200362 -0.07155176 -0.3889661
000370 02 50 90 bd bd 4c 6d 3e 84 05 98 3d f4 50 94 bd
       -0.0704651 0.23173805 0.07422927 -0.07242003
000380 0f fb 6d be 72 e8 3e bd 22 51 ca bd 7f 48 10 be
       -0.23240303 -0.046608396 -0.09878756 -0.14090155
000390 5c 88 70 bd 0a da 75 3e 57 7a 5d be b1 11 84 3e
       -0.058723792 0.24008957 -0.216287 0.25794747
0003a0 ff 1b 21 be c5 65 89 be 2e 7c 87 3e 00 13 f3 bd
       -0.15733336 -0.26835456 0.2646193 -0.11868858
0003b0 0a 1b 45 be 0c 53 9c bc f0 df 52 bd 90 61 c0 bc
       -0.19248596 -0.019082569 -0.051483095 -0.023484021
0003c0 c9 74 a7 be 98 6b a3 3e df 51 22 3e 83 09 c3 3d
       -0.32706288 0.31918025 0.15851544 0.095232986
0003d0 3a 1b 8a bd 0a 93 54 3d 45 43 91 bd 53 52 99 bd
       -0.06743474 0.05189804 -0.07092909 -0.07486405
0003e0 1a 0e 70 be b9 dd 74 3d 41 7d 2d be c0 78 91 3e
       -0.2344288 0.059781764 -0.16942312 0.28412437
0003f0 9a 89 cf 3d 90 66 89 3e e0 25 3c 3e ae d8 f9 3e
       0.10133667 0.2683606 0.18373823 0.48798126

l2.bias f4 [100]
000000 48 cd 15 bd eb a6 15 3e b0 ba 13 be 22 28 02 bc
       -0.036572725 0.14614455 -0.14426684 -0.007944139
000010 61 3a 2a 3e 14 74 11 3e 48 0e f7 3d 86 36 8b bd
       0.16623832 0.14204437 0.12063271 -0.06797509
000020 e1 7a c7 3d ea b5 9c 3e db 43 18 be a8 85 90 3d
       0.09740234 0.3060754 -0.14869635 0.07056743
000030 21 07 b7 bd 8f 06 32 3e a9 31 8c 3d 81 01 1e be
       -0.089369066 0.17385314 0.068454094 -0.15430261
000040 7f 72 9c 3e 38 7b 0e 3b ff 9c 14 be be 25 b5 3d
       0.30556104 0.0021740925 -0.14513014 0.088450894
000050 b9 56 51 3d fa 37 8e 3e 81 03 08 3e 8d ae a1 3e
       0.051108096 0.27777082 0.13282587 0.31578484
000060 3f 96 21 3d 0d 45 b9 3b 78 16 de bd 8f 39 4e bd
       0.039449926 0.0056539834 -0.10844129 -0.05034786
000070 d2 ec 57 bc d0 f8 2b bc e2 5f 04 3e eb c9 33 be
       -0.013179021 -0.010496333 0.12927201 -0.17557494
000080 ba 29 d6 bc 5a 16 1a 3d 8c 05 11 3e 7c 49 65 3d
       -0.026142944 0.037618972 0.14162272 0.055978283
000090 42 73 05 be 4c 64 d9 bc 49 d2 7d bd 32 ea ee bc
       -0.13032249 -0.026537083 -0.06196812 -0.029164407
0000a0 4e 11 1c bd e9 0c 0d 3e 26 09 29 3e d8 b2 97 3e
       -0.03810244 0.13774456 0.16507396 0.29628634
0000b0 44 2a 7b bc 1b 2e 56 3e cd e8 4f 3e c5 ac 8d bd
       -0.015329901 0.20916025 0.2030365 -0.06917719
0000c0 88 ae c1 bd 72 f2 88 bd 61 7a 6b bd d4 d4 e5 bd
       -0.09457117 -0.06686868 -0.057489756 -0.11222234
0000d0 0d 17 33 3e 79 62 85 bd c8 7b 9d bd f1 63 10 3e
       0.17489262 -0.06512923 -0.07689625 0.14100625
0000e0 01 c6 98 3e 61 eb e4 bd 4d b1 c6 3d ca 03 93 3e
       0.29838565 -0.111777075 0.09701786 0.28713828
0000f0 7b c8 8a 3c be fe 1c 3e 75 4c 0a 3e 84 6d 26 3e
       0.0169413 0.15331551 0.13505729 0.16252714
000100 28 a5 f2 3d d4 e1 2e be 7d be 38 3d c1 e2 4e 3d
       0.11847907 -0.17078334 0.04510354 0.050509218
000110 36 28 a8 3c 0c 2f 2b 3e b5 74 c7 3c a8 a0 53 3c
       0.020526987 0.16717166 0.024347642 0.012916721
000120 84 81 14 be 65 b2 51 3e ab 9d 37 3d ab ad df 3d
       -0.14502531 0.20478208 0.0448281 0.109217964
000130 f5 5f fd bc 4a 62 48 3e 16 4d 90 3d 08 ec 87 3d
       -0.030929545 0.19568744 0.07045953 0.06636816
000140 bd 90 e3 bd 73 2b cc bd 70 8b 43 bd 4a df 5a 3e
       -0.11111591 -0.09969225 -0.0477404 0.2137424
000150 49 47 28 bc 12 e3 0a 3d 0f 3f 1c be bf f2 9b 3d
       -0.010270902 0.033907957 -0.1525843 0.076146595
000160 17 ed 58 3e 26 eb 1d be e4 3e 9d bd 51 dc de 3c
       0.21184193 -0.15421733 -0.07678011 0.027204664
000170 18 4d 26 3e b9 cb 09 be 1a 2c 2e 3e b1 92 2f bd
       0.16240346 -0.1345662 0.17009011 -0.042864505
000180 5c 8a 0f 3d 8c 17 1c 3e 11 53 67 3e db d5 60 be
       0.03504406 0.15243357 0.22590281 -0.2195658

l3.weight f4 [10, 100]
000000 3c d6 28 3d 1d 26 e2 be 6d fc 00 3e 53 c7 4f be
       0.041219935 -0.44169703 0.12596293 -0.2029088
000010 25 fb a6 bd 37 c0 0f 3d cc c3 72 bd 11 b8 95 3d
       -0.08153371 0.03509542 -0.059268758 0.073104985
000020 3c ca 00 3d da 83 4b be 12 2e eb 3d 2a 58 0c 3e
       0.031442866 -0.19874516 0.114833966 0.13705507
000030 fb 7c d7 be 63 d6 d1 be 0d de c2 be cb 6a 22 3e
       -0.4208754 -0.40983877 -0.38060036 0.15861051
000040 55 e1 e0 3c 31 49 21 3e 91 8f 85 3e e9 c1 b0 bd
       0.027451197 0.15750577 0.26086095 -0.086307354
000050 ee 02 a8 3b 67 03 90 3e 65 43 b2 3d fe d3 9d be
       0.0051273024 0.28127596 0.08704261 -0.308258
000060 cb 65 16 3e 3d 5c 68 3e f9 ae aa 3e 37 84 8a 3e
       0.14687268 0.22691436 0.3333662 0.27053997
000070 f2 7b 39 be 55 7b 27 3e d3 2c c7 3d d1 ef 34 bc
       -0.18113688 0.16355641 0.097253464 -0.011043505
000080 0b 3a 91 be 84 41 11 bf 96 79 7f 3d 73 90 d9 3d
       -0.28364596 -0.56740594 0.062371813 0.106232546
000090 84 47 a8 3d ae 15 ed bd 16 0b ac be be 0e a0 be
       0.082167655 -0.11576401 -0.33602208 -0.31261247
0000a0 af a0 19 be 43 86 04 3e c4 46 9c bd bd bd 30 be
       -0.15002702 0.12941842 -0.07630685 -0.1725988
0000b0 c3 35 68 3e 1c b0 98 3d 10 e7 3e 3e 57 a2 63 3e
       0.22676758 0.07455465 0.18642831 0.22229896
0000c0 65 13 90 bc 87 4f 2c 3e 46 77 58 3e 26 ce 08 be
       -0.017587373 0.16827212 0.21139249 -0.1335989
0000d0 5a fb 0a bd 1e c0 2b be cd 6f a8 3e da 5c a7 bd
       -0.033931114 -0.16772506 0.32897797 -0.08172007
0000e0 46 34 bb be 65 f0 84 3e 20 56 65 3d 8a b8 93 be
       -0.3656332 0.25964656 0.05599034 -0.2885173
0000f0 d7 72 a9 be 60 b1 e4 bc 39 52 17 bf 0f 8b 26 be
       -0.33095428 -0.02791661 -0.59109837 -0.16263984
000100 e3 56 11 be a5 71 2d bf fa 1b a7 3e 0c af 9a bd
       -0.14193301 -0.6775153 0.32638532 -0.07552919
000110 a7 6c 68 be c2 23 fe 3d 0d 26 7a be af fb 15 bf
       -0.22697698 0.12409164 -0.24428578 -0.58587164
000120 60 1f 48 bf 07 16 98 bd b4 1e a7 be fd a3 b5 be
       -0.78172874 -0.074260764 -0.32640612 -0.35476676
000130 b3 62 a3 bd ed 2e 71 3e 99 4a 5a bd db af ba bd
       -0.0797781 0.23553057 -0.053293798 -0.09115573
000140 e8 ac 39 be 7c e9 34 bf f9 f3 07 bf 74 3f bb be
       -0.18132365 -0.7066877 -0.5310665 -0.36571848
000150 2b 7e 59 be b9 01 10 3e 90 c3 5b bd 0e 48 99 bd
       -0.21239536 0.14063157 -0.0536533 -0.074844465
000160 64 fe b4 be e4 49 97 3d bb 9b 3d bf 27 9d eb 3d
       -0.35350335 0.073871404 -0.7406575 0.11504584
000170 39 ee 81 3e 81 ae 94 bd f4 eb 21 3d 62 c0 1e 3e
       0.25377062 -0.072598465 0.039531663 0.15503076
000180 79 ca 85 bc d6 98 54 be 1c c2 0c be f9 c1 87 be
       -0.016331898 -0.20761427 -0.13745922 -0.26515177
000190 3b 7c 08 bf 7e 33 8e be d1 ab 26 bf b0 bc 6d 3d
       -0.5331456 -0.2777366 -0.6510592 0.058041275
0001a0 fb 47 bb 3d 08 16 49 be 3f 8f 82 be 5f 67 48 bc
       0.091445886 -0.1963731 -0.25499913 -0.012231677
0001b0 55 d8 b5 be e3 f9 5f be 71 43 8f be db e0 4d 3e
       -0.3551661 -0.21872668 -0.2798114 0.20105307
0001c0 b6 1f e1 3d cf 1e 09 be 33 94 9d 3d d0 3f 39 3e
       0.109923765 -0.13390659 0.076942824 0.18090749
0001d0 d9 a3 3d bd 1c 93 93 3e 8a 83 1c 3e 9b 7b dc bd
       -0.046298835 0.28823173 0.15284553 -0.10765763
0001e0 55 cc ff be 62 17 aa be 63 16 39 be f7 2b 0a 3b
       -0.4996058 -0.33220965 -0.18074946 0.0021083334
0001f0 9c 19 1e 3c 75 02 f8 be 04 e5 42 bd d0 95 5a be
       0.00964966 -0.48439375 -0.047581688 -0.21346211
000200 92 6a 9d bd af 09 20 3e eb 83 a7 3d 88 79 c2 3d
       -0.07686342 0.15628694 0.08179458 0.094958365
000210 46 ba 78 3e 52 95 97 3d fc 76 84 be 6d 34 42 be
       0.24289808 0.074015275 -0.25872028 -0.18965311
000220 94 19 f4 bd 24 51 92 3e f3 e8 11 3e 71 b5 4c 3e
       -0.11918941 0.2857753 0.1424902 0.1999109
000230 92 f1 9d be 76 df 6a be 94 c9 1f 3e e1 26 5f be
       -0.30848366 -0.22936806 0.1560424 -0.21792175
000240 a7 fb 23 be ee 5c ca be a3 59 5f 3e f1 20 3c 3e
       -0.16013967 -0.39524025 0.21811537 0.18371941
000250 f9 21 ea bd 9c 83 d3 be 76 59 1c be d9 9a cb bd
       -0.11432261 -0.41311347 -0.15268502 -0.09941644
000260 4d 64 9f be 80 c0 1a bd 67 bc e0 be 44 63 81 be
       -0.3113121 -0.03778124 -0.4389374 -0.25271046
000270 2b b7 c1 be 7f c7 9e 3e 90 0d b3 bc 4b 60 ef bd
       -0.3783506 0.31011578 -0.021857053 -0.11688288
000280 f5 7d b6 be 1b 22 79 b9 5f b3 ff 3d b8 c1 a8 bd
       -0.35642973 -0.00023759196 0.12485384 -0.08240074
000290 c6 8f 1c 3d 87 9d d8 3c b8 2e aa bd b9 11 8e bd
       0.03822305 0.026442302 -0.08309692 -0.06936974
0002a0 36 4f c8 bd 28 72 69 be fa d1 83 3e 63 c3 69 3e
       -0.09780733 -0.22797453 0.25746137 0.2282844
0002b0 a6 39 1a 3e 66 f2 88 3d d9 fd 53 3d fd b5 a2 bd
       0.15061054 0.06686859 0.05175576 -0.07944868
0002c0 c6 73 a2 bd 0d 4c de be ee 96 d5 be 37 84 b5 3e
       -0.07932238 -0.43417397 -0.41716713 0.35452434
0002d0 88 e3 fa bd 8a a6 97 3e e5 8a d5 3e e1 73 c8 3d
       -0.122504294 0.29619247 0.4170753 0.09787727
0002e0 99 52 5f 3d 3f 4e 8e be d2 24 e2 bc 0d 5f cc bb
       0.05452213 -0.27794072 -0.027605448 -0.006236917
0002f0 44 9b 67 be 9e 98 99 be a1 a1 f3 3d 2d f0 15 3d
       -0.22617823 -0.2999925 0.11896063 0.036606003
000300 16 20 2d be 79 da f0 bd 7b b9 b1 be f0 72 92 3e
       -0.16906771 -0.1176042 -0.34711823 0.28603315
000310 8b 22 44 bd ee c4 bc 3d 6e a7 03 bd 3e 28 07 3e
       -0.047884505 0.09217249 -0.032142095 0.13198945
000320 e8 e1 7a 3d c7 4a 6a be 3f 4e 2c be 2e ca a6 3d
       0.061250597 -0.22880088 -0.16826724 0.081440315
000330 6c ac 80 3e 48 2a 19 3e a8 18 9c be 43 dd 4d 3b
       0.25131547 0.14957535 -0.3048756 0.00314124
000340 e1 59 3a be fc b2 8a be f6 9e 3c be d1 1b 23 3e
       -0.18198349 -0.2708968 -0.18420014 0.1592858
000350 10 14 de 3e a8 fd 9a 3e 4c cc e4 3d 79 c3 2e be
       0.4337468 0.3027165 0.11171779 -0.17066754
000360 3b 84 05 3e 8f b4 25 bf d0 a1 a5 3d f7 2e bc 3d
       0.13038723 -0.64728636 0.08087504 0.09188645
000370 fb d8 b7 3c 9f f1 9e 3e 97 73 57 3b 00 c2 27 3e
       0.022442332 0.31043717 0.0032875293 0.16382599
000380 94 8b a2 3c f0 fc 57 3d 46 f3 64 bc 15 54 3b be
       0.019841947 0.052731454 -0.0139740165 -0.18293793
000390 75 87 a4 be 44 4e ee 3d 15 15 a6 3d b4 37 0a 3e
       -0.32134596 0.11636022 0.0810949 0.13497812
0003a0 2c 44 57 bd 9e dd 5a bb 7a e4 43 3e 13 a8 54 be
       -0.05255525 -0.0033396254 0.19130126 -0.2076724
0003b0 d5 e1 f5 3c 54 44 71 3d 44 6e 82 3e 06 98 64 3e
       0.030014912 0.058903053 0.2547475 0.22323617
0003c0 6c 7b 75 be c7 ad d1 3e 72 00 1e b9 b1 cd fd bd
       -0.23972863 0.40952894 -0.0001506822 -0.12392748
0003d0 2a d3 10 3e ac 88 82 bd 96 53 f9 be 7a 84 ca bd
       0.14143053 -0.06373724 -0.48696584 -0.09888549
0003e0 02 c8 de bc b1 29 ab bd d6 1e f3 3d 08 79 f0 be
       -0.02719498 -0.083575614 0.11871116 -0.4696734
0003f0 0a 73 98 bd 21 a4 d0 3c a2 a1 9d be be 3a 93 be
       -0.07443817 0.025468888 -0.3078738 -0.28755754

l3.bias f4 [10]
000000 34 cc 06 bb 1a e6 31 be cf 43 c1 bc c4 bb c0 3b
       -0.0020568492 -0.17372933 -0.023591904 0.0058817584
000010 13 c5 d0 3d df 34 0f 3e 84 ca 21 bd 33 3d 45 be
       0.10193839 0.13985012 -0.039499775 -0.19261627
000020 df 57 89 3e 57 7c 28 3d
       0.26824853 0.041134205
